Pytorch/savedModels/fashionMNIST.ckpt (torch_old, 133629 bytes, 10 tensors)

conv1.weight f4 [6, 1, 5, 5]
00000000: 5904 7c3d 46c4 263f 73aa 07bf ead6 0fbe
00000010: 73b9 a2be 406f 723d 9c9b 923e 254a 99bd
00000020: 477a 10be 0f59 4dbe 834d 8abe 5caf 193e
00000030: fe18 4c3e c375 f5bd 3753 643e da77 91be
00000040: f747 ffbd 547e ba3e 8793 d73d 6b1e 61bd
00000050: 443b 8dbe 4c12 f5be 4e84 983e 61b0 413d
00000060: b251 223d 5a8f d5be 4562 e4bd 3d9f 8bbe
00000070: 4883 e4be 69dd d83e 7453 413e be89 b8bd
00000080: e559 c6bd 1138 df3d 2fa1 5e3e b564 38bd
00000090: 7055 2fbe a918 c53e 6b90 363e c463 adbd
000000a0: 2ff8 bbbd 1d42 b53d a63e 06bd 9145 ac3e
000000b0: e742 cf3d e9ce 48be ca49 ad3c c111 083e
000000c0: 2474 a4bc 33ce 01bb dd7b 46bd 62dc 68be
000000d0: f89c 89be 154a e5bd 36ba 43bd 16c8 0cba
000000e0: 6593 ebbe 5e3b 38bf 87af e8be 2aca b8bd
000000f0: 3d87 613d e079 a13d c066 8fbe c014 a7be
00000100: df99 8abb 4192 34be aadd 14bd 0a86 73bd
00000110: 3946 263d 24ea f7bd af80 f93d 2722 d63c
00000120: b7b8 623d c273 2ebe 1b1a 78be d6cf 05bf
00000130: 398a 46bf e71d 0abf 8018 58be 7ef1 1c3e
00000140: 9dd8 87be d5ef 66bf 31c2 54bf da1b f53d
00000150: 3888 29be 905f 893e d5c9 833d 2c67 dd3d
00000160: 02ab 153d 9404 87bd 0cd6 7a3b e5c2 96bd
00000170: 0914 8dbd 3ca1 d1bd 6cc5 1f3e b3a4 6a3d
00000180: 79d7 43bd 8ba7 1cbd 6c4a 6c3e c032 73bb
00000190: fa1f de3d c3b9 e63d dffc 2f3e af12 723d
000001a0: b789 a7bb 5ee0 043e ce63 2a3e 8d21 303e
000001b0: 43bd 5e3e 5fd5 96bd 266e edbd d067 7f3e
000001c0: 2c65 883e ae25 97be 9b62 02bd fa4b 8d3d
000001d0: da05 0dbf 852a 9abe 022c 4fbb 2057 2d3e
000001e0: e73f 9abe fa61 28bf c5c5 17bf 3527 3abe
000001f0: a671 0bbc da21 4b3d 5853 523b 9c63 a6bc
00000200: 9d22 a83d 5004 05bd 359f 22bd 7dbb 813c
00000210: ccab d73b 37f2 3d3d d612 f93c d61b 4fbd
00000220: 3964 a6bd ca09 923e 88b4 82be c4ac 163e
00000230: 831d 573e 8967 30bf 2717 d83e 630e 623e
00000240: 3731 82bd a54a a23e d32d b6be f76c e1be
00000250: a192 e13e bf3f 063e
0.061527584 0.6514324 -0.5299446 -0.14046827 -0.31782112 0.059188128 0.28634346 -0.07484845
-0.14109145 -0.20053504 -0.27012262 0.150083 0.19931409 -0.11985352 0.22297369 -0.28411752
-0.12464898 0.36424506 0.105261855 -0.05496065 -0.2758428 -0.47865522 0.2978844 0.04728735
0.039628692 -0.4171093 -0.11151556 -0.27269927 -0.4463141 0.42356423 0.18879491 -0.09010647
-0.09685115 0.10899366 0.21741174 -0.045017917 -0.17122436 0.38495377 0.17828529 -0.084662944
-0.09178197 0.08850501 -0.03277459 0.33646825 0.101201825 -0.1961018 0.02115335 0.13288023
-0.020074911 -0.0019806742 -0.04845797 -0.2274032 -0.2687757 -0.11195771 -0.047785006 -0.00053703913
-0.4601089 -0.7196559 -0.45446417 -0.09022935 0.055060614 0.07884574 -0.2800808 -0.32633018
-0.0042297686 -0.17633916 -0.036344208 -0.059454 0.040594313 -0.12105206 0.121827476 0.026139332
0.05535194 -0.17036346 -0.24228708 -0.5227026 -0.7755466 -0.5395188 -0.21103096 0.15326497
-0.2653245 -0.90209705 -0.8310881 0.11968203 -0.1655587 0.2683072 0.06434981 0.10810694
0.03654004 -0.0659267 0.0038274555 -0.07361392 -0.06888587 -0.10235831 0.15602654 0.057285976
-0.047812913 -0.03824572 0.23075265 -0.0037109107 0.10845943 0.112659 0.17186306 0.05909985
-0.0051128524 0.12976214 0.16639635 0.17200299 0.21751885 -0.07364916 -0.11593275 0.24941945
0.26639688 -0.29520935 -0.03183232 0.06899257 -0.55087054 -0.30110565 -0.0031611924 0.16927767
-0.3012688 -0.657745 -0.5928615 -0.18179019 -0.008510983 0.04959283 0.0032093134 -0.02031117
0.08209727 -0.032474816 -0.039702613 0.015836472 0.006581759 0.046373572 0.03040449 -0.050563656
-0.08124585 0.28523093 -0.2552836 0.14714342 0.21007352 -0.6890798 0.42205164 0.220758
-0.06357043 0.31697574 -0.35581836 -0.44028446 0.4405718 0.13110255

conv1.bias f4 [6]
00000000: d275 bfbe 4689 3fbd cb2c aebf 9712 fabf
00000010: 559e 2fbf de2d febd
-0.37394577 -0.046761774 -1.360742 -1.9536923 -0.6860097 -0.12411092

conv2.weight f4 [12, 6, 5, 5]
00000000: 64c8 cd3e 3219 d7be 9a39 c8be 2f2a 42bd
00000010: 3b40 473e bc37 51be 96c0 593e 3622 40be
00000020: 53ca a03e 3cd9 843e c077 353e 42d3 173e
00000030: 646d 28bf 12cb 6bbd 706a 143e 554f 0d3f
00000040: 81af 8c3e 7331 223e cac3 02be 11a1 063e
00000050: dcca fb3d 648e 40bd ea25 b8bb 73d2 403c
00000060: fe1b 90bd c232 a5be 203e e73e 3ba8 a03e
00000070: 9bb9 653e c493 3bbe 7547 3c3e 4e86 4dbe
00000080: 0cf7 04bf 8434 703e b063 8fbe 27e2 7b3d
00000090: 4950 30be 165b 603e a20c 32be cce1 87be
000000a0: 1a70 093e 8ec1 033e 855c 6d3e ea93 493e
000000b0: 09ff 00be ea5c febd 538e fc3d 9051 93bd
000000c0: 0495 34be 0bc0 51be 3fb2 0f3f 2402 463f
000000d0: ec29 853e 8260 3fbe 35d4 d63e e300 5c3c
000000e0: 75eb 76be 2623 013e d64b f33e 7ae2 763e
000000f0: 88ce cabe 912d a9be fbc8 693e 05bf d03c
00000100: ef61 05be 6971 85bf 3b41 ffbe 6e8f 05be
00000110: ed0e b13d dbf1 f2be a618 dbbe e214 b7be
00000120: 1c24 cebe 3e27 87be 3d32 2dbf 7f1b 933e
00000130: 5812 523f 5181 9d3d 9665 a2be cdc9 74be
00000140: 1711 b93e 5a2d 32be 0f51 a0be 2702 cd3e
00000150: d38d ae3d c6b6 09be 21ce 1dbd 8097 b73e
00000160: 9cea b23e 0ff9 3d3e 17b4 22bf fbaf e7be
00000170: 3227 c8be 58ce da3e 3811 85be 5d12 47be
00000180: bf8f a1bd 29c3 6cbe b288 873e db4b 14be
00000190: 945a 32be 3c17 d33d 9c75 b33d 98fa ba3e
000001a0: e669 993e 3ba8 7abe 5da6 203e debf fb3c
000001b0: 5b4e 2a3e 6658 363e 910f acbe 69bc 193e
000001c0: abb1 69be a1ff 9bba 01bb bebe 608d bd3d
000001d0: 556d 133d 2f3a 693d ddd6 a63d 6697 32be
000001e0: 098a 853e 92b1 f73d 3cc5 d6bc 270b f4bc
000001f0: ef8b debe 89ff 11bf 4593 69be 462e 9abe
00000200: 9324 323d 0b59 38be 8a74 e7bd 523c 2cbe
00000210: f2f6 33bd ea1c 64bd 0528 333c a301 313e
00000220: 7751 483e 2ff6 02be 4414 4d3e 38e7 f43d
00000230: cdc4 273e 1476 73be 27f6 22be 1509 28be
00000240: b5c9 603e 99c0 40bd 717c dabd 44d0 f4be
00000250: fc51 5e3e 550e 6b3e 231a 4abd 7599 e03d
00000260: 12b0 a83e e1e4 a73b 576e 1cbf 0b59 b5be
00000270: a2e2 c6be f5c7 d53d bfa0 ea3e f6da f0bc
00000280: 28ec fdbe eb57 61be 89e2 b7be b028 c43e
00000290: a547 19be a1ed a8be 49fc bebd 9bac a0be
000002a0: ea61 863d de22 283e 908a 91be c54b 1b3f
000002b0: 626c c8be 6de9 913c 4ec7 65bf fbf7 1b3d
000002c0: 7979 fb3b a6e5 c4be 5877 2bbf d37f 9fbe
000002d0: 63c5 f53d 2e3a a0be 9787 35be 5596 5cbf
000002e0: cde5 fe3d 8376 8bbc fcbb 953d a72c 64bd
000002f0: d4d1 3cbe b06c 273f daea 0c3e ca58 003e
00000300: 9e29 1bbe f57b ffbe 755e 9e3d 0750 2b3e
00000310: c9f7 1e3e 5008 83be 9ac9 f9be a91b 4e3d
00000320: 6147 59bd 925b 2bbe e275 b2bd ea6c 183d
00000330: e780 24be 3d89 2a3e 19c6 3dbd f6c6 d9be
00000340: 79bd bb3e a132 2bbc 2198 9c3e da49 403e
00000350: 42fd 95be 5471 cbbd a06b bb3d 3910 2d3f
00000360: 6ddc 883e 0717 dcbe 7dcb 11bf c88f 12be
00000370: ee62 103f 38c8 493e cccc debc 20ca 49bd
00000380: 0478 5e3e a32a e43d 72ef 5cbe 2a7b 36bf
00000390: a763 61be 7b04 babe c4a3 1b3e 08ea 753d
000003a0: d3b1 4cbf c81c c13e 09c9 ec3d 443c cc3e
000003b0: b237 cb3e 1b2b f0bd 1e94 80bd 10d4 353e
000003c0: 0dff 053f 4fdb 853e a389 17bf 4d41 6fbf
000003d0: 6c55 fcbe 358f 2f3f 7811 223e 36f6 8dbe
000003e0: ab09 12be e794 3f3e 2273 5e3e 8187 c83d
000003f0: 0733 bcbe f06f 93be 9c04 113f 3df6 a53d
0.40191948 -0.4201141 -0.39106447 -0.04740351 0.19458096 -0.20431417 0.21264872 -0.1876305
0.3140436 0.25946987 0.17721462 0.14826682 -0.65791917 -0.05756671 0.14493728 0.55199176
0.2747765 0.15839176 -0.1277 0.1314738 0.12294552 -0.047010794 -0.005619754 0.011768925
-0.07036589 -0.32265288 0.45164585 0.3137835 0.22434084 -0.18318087 0.18386634 -0.20070764
-0.51939464 0.23457533 -0.28005743 0.061494973 -0.17218126 0.21909747 -0.17387632 -0.26539457
0.1342167 0.12866804 0.23179825 0.19685331 -0.12597288 -0.12420066 0.12331834 -0.07193291
-0.1763497 -0.20483415 0.56131357 0.77347016 0.26008546 -0.18689159 0.41958776 0.013427946
-0.24113257 0.12611064 0.47518796 0.24109831 -0.39610696 -0.33042577 0.22830574 0.02548171
-0.1302564 -1.0425235 -0.49854454 -0.13042995 0.08645425 -0.47450146 -0.42792243 -0.3575812
-0.40261924 -0.26397127 -0.6765478 0.28731915 0.8205924 0.07690681 -0.3171813 -0.23905106
0.3614585 -0.17400113 -0.31311843 0.40040705 0.085231446 -0.13448629 -0.038526658 0.35857773
0.34944618 0.1855204 -0.63556045 -0.4525145 -0.39092404 0.42735553 -0.259897 -0.19440599
-0.078887455 -0.23121323 0.26471478 -0.14482062 -0.17417365 0.10307166 0.087626666 0.36519313
0.29963607 -0.24478237 0.15688463 0.030731138 0.16631453 0.17807159 -0.33605626 0.15013279
-0.22821681 -0.0011901745 -0.37252048 0.09255481 0.03599294 0.056940254 0.08146451 -0.17440566
0.26081875 0.12094416 -0.026217096 -0.029790474 -0.43466136 -0.5703054 -0.22810085 -0.3011343
0.04349191 -0.18002717 -0.11301525 -0.16819885 -0.043936677 -0.055691637 0.010934834 0.1728578
0.19562326 -0.12789224 0.20027262 0.11958164 0.16383667 -0.23775512 -0.15914212 -0.16409715
0.21951945 -0.047058675 -0.106682666 -0.47815144 0.21710962 0.22954686 -0.049341332 0.109667696
0.3294683 0.00512372 -0.61105865 -0.35419497 -0.38844782 0.104385294 0.45825765 -0.029401284
-0.49594235 -0.22006194 -0.3591502 0.38312292 -0.14968736 -0.32993796 -0.09325463 -0.31381688
0.065616444 0.16419551 -0.28426027 0.6066249 -0.3914519 0.017811501 -0.8975724 0.03807829
0.007674393 -0.38456458 -0.6697898 -0.3115221 0.12000539 -0.31294388 -0.17727505 -0.8616689
0.12446175 -0.017024284 0.07311246 -0.055706646 -0.18439418 0.6540022 0.13761464 0.1253387
-0.15152594 -0.4989926 0.0773286 0.16729747 0.1552421 -0.2559228 -0.48786622 0.050319348
-0.053046588 -0.1673415 -0.087138906 0.037213244 -0.16064797 0.16653915 -0.0463315 -0.42534608
0.36667994 -0.010449083 0.30584815 0.18778172 -0.29294783 -0.09933725 0.09151387 0.6760288
0.26730672 -0.42986318 -0.56951123 -0.1431266 0.56400955 0.19705284 -0.027197264 -0.049265027
0.2172547 0.11140945 -0.21575716 -0.71281683 -0.2201067 -0.36331543 0.1519919 0.060037643
-0.7995884 0.3771727 0.11561782 0.3988973 0.3969093 -0.11726972 -0.06278251 0.17756677
0.523423 0.26143882 -0.5919439 -0.93459016 -0.49283922 0.6857789 0.15826976 -0.27726907
-0.142615 0.18709145 0.21723607 0.0979147 -0.3675768 -0.2879634 0.5664766 0.08103607

conv2.bias f4 [12]
00000000: ace3 9bbe da21 65be 5d34 16be 653c d63c
00000010: ec7e 3fbf c37b 67bf e191 aabe 9109 2a3f
00000020: 5c22 ce3d 297a 47bd b92e a2be 3efa 4ebe
-0.30447137 -0.22376195 -0.14668413 0.026151845 -0.7480304 -0.9042322 -0.33314422 0.6642085
0.10065147 -0.048700485 -0.31676272 -0.20212647

fc1.weight f4 [120, 192]
00000000: 2647 0f3e 456c db3d 8883 053e f9bb 08bf
00000010: 5f32 6bbf 7686 78bf c0f3 30be 34f3 0abf
00000020: e057 0dbe 0210 0abf ba17 353d 62d1 89bd
00000030: 34f9 fbbe feec 40bd 47ac e33e bb84 b63e
00000040: 11a0 92be 2cd5 28bf 968d 483d 823b d2be
00000050: afd2 bb3d 6a2f ec3d a8cb 0d3d 0268 533a
00000060: 61dc ba3d 6b8f cf3e 1a4c b1be 88cc 283f
00000070: ed35 093f 638a 513c ee4a 5eba e6fa d13e
00000080: 27ba 28bf bfec 33bf 7e01 1e3e 6311 b43c
00000090: 6725 dabe 2784 c0bd 010b 323e 0176 7ebe
000000a0: 36cc 74be bd63 3c3c 6642 bc3e e848 9e3d
000000b0: a10d 7fbe 1740 3d3d 6b1c 903e f06b fd3b
000000c0: be47 263d e109 ea3d 14b4 c1bd 44ef 4dbf
000000d0: fc9d 31be d00d ffbe f954 0dbe 61f5 ecbd
000000e0: 9b90 5f3e 664d 40be 0dcd e2bd 510f e6bd
000000f0: 023d d33d 5d9c debe 9df9 343e 593b 513f
00000100: d65c 133e cd92 3abd 1bc3 383d c867 50be
00000110: 2d66 25be 3766 2abc df06 d8bc fe35 663e
00000120: b9b3 18bf 032d c5bc f69e 963c c6a8 303e
00000130: 8c15 b5be 5efc fe3e 4373 5bbe f7ad 2abd
00000140: 571d bf3e 9ad5 9cbe ad52 a4be c729 83be
00000150: 3898 57be a3ec d2bd ef85 843e 520a a4bd
00000160: 08b6 b8bd 4aee 4f3e 4fc6 35bf 9902 34bf
00000170: b8a8 ab3d 69fa ac3d 9c2f 49bf b1d9 59be
00000180: 0a06 23be c29a c2be cf71 2a3d fb43 e33e
00000190: 80b2 39bd 8349 7c3e 63d1 e03e 75ac 8b3e
000001a0: 976a 73be 3430 36be b420 85be c42a 023f
000001b0: ba41 a8be 33ba dd3d 543b 9ebe 8c5c 7a3d
000001c0: 7ca6 943e 2c58 4c3f 53ab 6b3e a1c2 4a3e
000001d0: 32b4 283e 6228 223f c7a1 f33d 0576 6e3e
000001e0: bb9b 7d3e 1312 c43e b631 4d3e 104d 81bd
000001f0: 6400 c9be bc62 313f 50df b0be 0ffd 32bf
00000200: 5fd2 893d f160 933e d27f b1bc 4c34 a43e
00000210: b3b9 bdbc 65b5 55bd 3b24 21bf c1d4 873e
00000220: 3aa3 18be 9fbe eb3d 3293 cebe 5eae 22bf
00000230: 8906 cebd 6b11 1f3f 8ac7 9abe 0ce5 3cbf
00000240: 93d0 ff3e 2905 a2bd a679 2f3e 7342 a53d
00000250: 0a1f 8c3d 00b8 c8be 9b8c 4cbf da02 93bd
00000260: 0d2c 653e 213c 05bf 8f1f 49bf 2fa0 caba
00000270: 5f79 6b3e 5f11 a9bf ac34 e0be a451 833e
00000280: 1d25 8bbd 5a04 fcbd 655f f9bd c856 02bf
00000290: 9b18 a73e b6d2 723f f839 e33e aa30 12be
000002a0: 02ac f6bc e266 1c3f 3b8e 643e 8646 52be
000002b0: 2290 ed3d cb04 af3e 66b4 5dbf 510f 3fbf
000002c0: 7875 dd3e ce17 d53f d109 513f eb17 58bf
000002d0: 515f b8bd 6c63 263e 720b 5f3e c6e7 163e
000002e0: 503e a83e 2f09 c33f 8233 adbb 2b00 3ebe
000002f0: ddad eabe 2258 be3e d820 aa3d c722 44bd
00000300: 3f4e 35bd 94de 04bf 0f64 51bf 6722 13bf
00000310: 341e cabe 2033 d5bd 285f 03bf b025 6ebe
00000320: 0d7c f1bd 69d7 adbe 7784 25bf a1bc 073c
00000330: 5a98 cabd 42d3 fabd 1663 dbbe ab30 d93c
00000340: 617b 9dbe cc07 92be d59c b3be b545 53bf
00000350: 75e7 173e d991 84be e89a f7bd 003c 40be
00000360: dc3a 4d3e f991 443d 8323 6b3e 9e3e ba3e
00000370: 2914 1dbe 3126 f83d d88c 00bf 42ce 2b3d
00000380: 3ab5 76be 9a17 16bf a316 5dbf 2cdc 3f3e
00000390: ee18 3dbe e618 96be fdbd 01bf 6975 263e
000003a0: e202 0b3c 11e9 333e 6880 8b3c 5834 793e
000003b0: a910 183e f0f8 7a3d bf0b e73d 97df 903e
000003c0: 40cb ab3e e454 b8be 31a9 26bf 6d3f 27bf
000003d0: a5c4 ae3d f4f8 d5be 944e 23bf 24a4 073f
000003e0: c2f5 f7be a49e 03bf 78b4 39be 5e6d 073d
000003f0: a752 c1bd 39d1 ac3e 10f1 4b3f bae8 c63d
0.13991985 0.1071401 0.13038456 -0.53411824 -0.91873735 -0.9708017 -0.17280483 -0.5427735
-0.13803053 -0.53930676 0.04421208 -0.0672939 -0.49213564 -0.047101013 0.44467375 0.3564814
-0.28637746 -0.65950274 0.048963152 -0.41061026 0.09171044 0.11532481 0.03461805 0.00080645096
0.09124065 0.40539107 -0.34628373 0.6593709 0.5359791 0.012789342 -0.00084797933 0.41011733
-0.65909046 -0.7028312 0.15430257 0.021980947 -0.4260666 -0.09400206 0.1738701 -0.24849702
-0.23906025 0.011498389 0.36769408 0.077287495 -0.24907543 0.0462037 0.2814668 0.0077338144
0.040595762 0.114276655 -0.09458175 -0.80443215 -0.17345423 -0.49815226 -0.13801946 -0.1157024
0.21832506 -0.18779525 -0.110742666 -0.1123339 0.10314371 -0.4347867 0.17673345 0.8173118
0.14390883 -0.045550156 0.045107942 -0.2035209 -0.16152258 -0.0104003465 -0.026370464 0.22481534
-0.59649235 -0.024069315 0.018386345 0.17251882 -0.35368 0.49801916 -0.21430688 -0.041669812
0.37327072 -0.30631715 -0.32094327 -0.2561781 -0.2105416 -0.10299041 0.25883433 -0.08009781
-0.09019095 0.20305744 -0.7100572 -0.70316464 0.0838179 0.084461994 -0.7858827 -0.21274449
-0.15920272 -0.38008696 0.041612443 0.44387802 -0.045336246 0.24637417 0.4390975 0.27280012
-0.2377113 -0.17791826 -0.26001513 0.50846505 -0.32862645 0.1082653 -0.3090464 0.061123416
0.29033267 0.7982204 0.23014574 0.19800808 0.16474989 0.6334287 0.11896091 0.23287208
0.24766438 0.3829504 0.20038494 -0.06313527 -0.3925811 0.6929128 -0.34545374 -0.69917387
0.06729578 0.28784898 -0.021667395 0.3207115 -0.023159837 -0.052174944 -0.6294591 0.26529506
-0.14906016 0.115109675 -0.40346676 -0.63547313 -0.1005984 0.6213595 -0.3023036 -0.73787
0.49963817 -0.079111405 0.17136249 0.08069315 0.06841858 -0.3920288 -0.79902047 -0.07178278
0.22380085 -0.52044874 -0.7856378 -0.0015459115 0.22995518 -1.3208426 -0.43790185 0.25648224
-0.06794188 -0.123055175 -0.12176398 -0.5091367 0.3263596 0.9485277 0.44380164 -0.14276376
-0.030111317 0.61094487 0.22319882 -0.20534715 0.11599757 0.34183344 -0.8660339 -0.74632746
0.43253684 1.664789 0.81655604 -0.84411496 -0.09002555 0.16248864 0.2178171 0.14736852
0.3286004 1.5237178 -0.005285681 -0.18554752 -0.45835772 0.37176615 0.08307046 -0.04788473
-0.044264074 -0.5190213 -0.817933 -0.5747437 -0.39476168 -0.10410142 -0.5131707 -0.23256564
-0.11791239 -0.33953407 -0.6465525 0.008284719 -0.0989234 -0.122473255 -0.42849034 0.026512465
-0.30758193 -0.28521574 -0.3508059 -0.8252824 0.14834388 -0.25892523 -0.12090093 -0.18772888
0.20041984 0.047990773 0.22962765 0.36375898 -0.15339722 0.121166594 -0.5021491 0.04194475
-0.2409257 -0.58629763 -0.86362666 0.18736333 -0.18466541 -0.2931587 -0.50680524 0.16255726
0.008484574 0.17569377 0.017029002 0.24336374 0.14850105 0.06127256 0.11281537 0.28295586
0.33553505 -0.36002266 -0.65101916 -0.65331155 0.08533601 -0.417915 -0.63791776 0.52984834
-0.48429686 -0.5141394 -0.1813525 0.033063285 -0.09439593 0.33753374 0.7966471 0.09712358

fc1.bias f4 [120]
00000000: 0128 663e 32d6 6a3d 05e4 29be 5ba9 833b
00000010: 6a8c 1ebe 1f86 75be df16 903e 45ae f2bd
00000020: 84fa 02bf f409 2cbd e3fb c23d f95b 433e
00000030: 5f96 2f3d e4e1 d7bd 0e51 383e ca27 15be
00000040: d7f0 0cbf a712 aebb 8f0d d13e e55b 76bd
00000050: c75c f73d 3c83 04be 917b 313e 2b56 483e
00000060: 70e3 7abd 1613 a53e f7da 1f3e 2cb6 dbbe
00000070: 691e 05be 65f8 c2bd 36d5 a3bd ff88 4b3e
00000080: f9ca c6bd 9aa3 68bd 3071 7a3e edc8 31be
00000090: efe3 e93e a35e eabe f569 17bc cd28 f53e
000000a0: e5bf b8be 1232 02be 5d8d d6be 4362 423c
000000b0: 5ef5 dbbb 6202 8ebd cae8 ac3e f205 f6bd
000000c0: f7d9 9b3e cbc9 71bd 9582 593e 14f1 debd
000000d0: cca5 c1bc 856f b3be acc5 8ebc e04a edbd
000000e0: ab75 cbbe bf05 013f 2398 883d 5c02 22be
000000f0: 493a b0bd 8094 8b3e f1fd cc3d 26a1 183e
00000100: 6c3b f9bc a1b3 1a3e 3ee4 9a3e 52d3 39be
00000110: a362 323e fcbe 32be 9ecc f9be 7175 aebc
00000120: dec2 f13b 59e5 d7bd 4fc9 1a3e cc3e 6a3e
00000130: bae5 653e a520 183e 27b4 913b 1612 02be
00000140: 44b5 38bd 18e0 dcbe c5cb 1d3f 4c31 6a3e
00000150: 2e53 06bd af48 8cbd 94ba 88bc bc0a 2c3e
00000160: 8c32 d7bd ea70 a03e 34a0 ffbd 8931 d0bd
00000170: ab5e 1b3e 7bb0 713e 3333 b1be 952c ddbb
00000180: 8d1a 63be 8797 c1bd ec9c a0bd 1183 673d
00000190: 6cfe 9bbe 0f7f e3bd 519a 5fbd 49fd 19bb
000001a0: dddc 933d d7bc 793f ee66 fa3e fe9d 003e
000001b0: 450b 0fbe 9d8d 3a3f 0838 453e bfe1 9abe
000001c0: 5004 fb3e e85e c6bd b389 83be b40c 3bbe
000001d0: 134e 99bd e22d afbe c396 e43b a29a 17be
0.22476198 0.05733318 -0.16590889 0.0040179915 -0.15483251 -0.23976944 0.2814245 -0.118496455
-0.51163507 -0.04200168 0.095207 0.19078054 0.042868014 -0.10541132 0.1799967 -0.1456596
-0.5505499 -0.005312282 0.40830657 -0.06014623 0.12078243 -0.12940687 0.17332293 0.1956412
-0.061252058 0.32241124 0.15610872 -0.42912424 -0.12999882 -0.09520034 -0.07999651 0.19876479
-0.09706683 -0.056796648 0.2445724 -0.17361803 0.45681712 -0.45775327 -0.009241571 0.4788269
-0.36083904 -0.12714413 -0.41904727 0.011864248 -0.0067125997 -0.06934048 0.33771354 -0.12012853
0.3043973 -0.059030335 0.2124122 -0.10885826 -0.023638628 -0.3504602 -0.017428242 -0.11586547
-0.3973821 0.5039939 0.06669643 -0.15821213 -0.08604867 0.27261734 0.10009373 0.14905223
-0.030423842 0.15107585 0.3025226 -0.18147019 0.1742044 -0.17455667 -0.48788923 -0.021296235
0.0073779663 -0.105417915 0.15115856 0.22875518 0.22450915 0.14856203 0.0044465247 -0.12702212
-0.045094743 -0.4313972 0.6163905 0.22870368 -0.03279417 -0.06849801 -0.01669053 0.1680097
-0.10507688 0.31336147 -0.12481728 -0.10165698 0.15172832 0.23602478 -0.34609374 -0.0067496994
-0.22178097 -0.0945273 -0.078424305 0.05652148 -0.30467546 -0.11108219 -0.054590527 -0.0023496917
0.07219861 0.9755377 0.48906654 0.12560269 -0.13969143 0.72872335 0.19259655 -0.30250356
0.49026728 -0.09686071 -0.25690994 -0.18266565 -0.074855946 -0.34214693 0.00697598 -0.14805081

fc2.weight f4 [60, 120]
00000000: 8ae0 3cbe fe93 b23d 78d1 f2bd fc18 2d3d
00000010: 2d4a cb3d 2263 adbe 57a4 debc ce50 ac3d
00000020: 0986 d1bd 4cec c7bc 0482 c23d 4489 0f3e
00000030: 975a 65be 2a63 51bc e3be 683e 7548 513e
00000040: 5b9a 0bbe f13a 0ebe 70a1 96be a8a2 96bd
00000050: 0177 76be 5c84 0b3d 73f7 96bd 3774 613e
00000060: dced 94bd a558 e43d 7976 3e3d 25f0 8b3c
00000070: 8d5c a5bd 3f98 b6bd 0314 a4bc a546 9a3e
00000080: b79a 13bd 1fc1 88be f629 c2bc 60bc 873d
00000090: 3e99 9abd ae82 8abe 1459 15bd c4d7 2cbe
000000a0: 5c31 a8bd e0bf 403d ce4f 90be b220 fa3d
000000b0: c0f0 20bd aff9 62bd f078 a13e d087 6fbd
000000c0: 962c 9dbd b618 1c3d c59d a33d 84ca 133d
000000d0: d457 2b3d bc84 59bd 12c1 09bd 603e 9cbd
000000e0: 3d4e d6be 81db 80bc 5d61 a9bd 2853 e5bd
000000f0: 4e03 cdbd fe8f 1dbe 13cf 7b3e 43cb 0dbe
00000100: 5ebf 44bd 20ed 2a3c 1090 8ebd 8caf 88bd
00000110: 9eea 9a3d 67e5 f3bd 6e10 44bd edac 013d
00000120: 3e12 5cbe 2ed2 8a3d 1566 d03d 2e87 763e
00000130: 4770 b93d 5ab2 27be 38de 853e 0037 8f3d
00000140: a4ac d03c d74b 80be 8686 20be c746 223e
00000150: 268b 5dbd 9f8b 49bd d9e1 a8bd 7bbe 043e
00000160: 64ec 2c3d a1fc e3be 564f a7be d482 8e3d
00000170: 2159 113d 0120 8f3d b6e2 63be 6bc5 99bc
00000180: a069 a73e d525 a6bd b7e0 c33a ab7f 063e
00000190: 54cd c83e a838 2dbd 2f32 8ebd 138e 0b3e
000001a0: 1570 92bc 1862 a23d 7d7f 95be 4aa4 a43e
000001b0: a096 5cbc 2fa9 22be f2ca dabd e375 1abf
000001c0: 9acb 3fbe 3549 683d 3405 2f3d 797f 67be
000001d0: f826 debc e334 9ebe 5786 6abd 2d11 8f3e
000001e0: 354c fd3d ff45 fa3d f1fc dbbd 2c2b 8f3c
000001f0: f6e4 063e 37d9 66bc ba45 13bf a17f 7d3b
00000200: a78d da3e f899 ae3d 6a47 98be bf62 23bc
00000210: f5f9 e43c aeb1 39bd fa78 ecbe 8079 3bbc
00000220: 3bb7 8ebe 7fb6 08bf 6cf2 36bd 54fb a33c
00000230: 6427 073d 88f2 5d3b 548b fcbd 79a3 103e
00000240: 0678 1abe b7db 17be acbc 20bd e3a6 853e
00000250: bcc4 b5bd 04ab 303d ac88 143d 5b22 3cbf
00000260: a784 b9bb c4cf c83d b81a 073e 26c6 143e
00000270: f00e 803d d27a 9b3c 9b4b 9ebd cf1b 6f3e
00000280: 0a01 773e b010 2ebc 381b d33e 8c0c 10be
00000290: e0cb 393b be99 bc3d b8b8 5fbf 2bab 8fbd
000002a0: f215 273e a7b5 af3d e1f5 7a3e f181 d03d
000002b0: 5c4e 923d 4c07 323e e041 3ebc 30c6 b73c
000002c0: 9511 e3be c88e 083f f7e9 8fbe 91b3 0d3e
000002d0: 6628 043d 83ac 85bd 1b2a b5bd 6a94 8d3e
000002e0: 0402 aa3d 06d7 a7be d09a 5ebf d9f1 f03d
000002f0: c3ab b2be f65b 813e 6c6e 2f3d 88ef ddbc
00000300: b61d 8abe e9f2 ad3c 432c 78be 897b 8cbd
00000310: 7a77 ef3d 54a3 d0bd 722d 5d3e d4b2 aebc
00000320: c050 61bc 1ffa f13c 04d6 0a3e ac1f b13e
00000330: a5c2 5c3d be03 e2bd 5896 9ebc 1aef dabb
00000340: 0438 1bbd aadd 5d3e 6d5b 9ebd 669a 143d
00000350: 7d57 f43c 6869 543d e3b3 c33d 3dc8 eb3d
00000360: 9ec7 f7bd b967 873d 403f f7bd ed69 ab3c
00000370: a9cb da3b d0ef afbc 0089 fb39 987a 31be
00000380: e064 1f3e c48f 183e 707a 7d3e 380a ccbd
00000390: 2673 8e3d bdf0 c13e 93e6 bf3e 0f04 e1bd
000003a0: c05f 04bd 75bc 0c3c 993b 8bbd df8d 55be
000003b0: c4ed 1d3d a078 c2bb 74c9 3c3e 7a26 fdbc
000003c0: 90b3 cfbd 6970 88bd e290 7c3c 574f 19be
000003d0: 5045 4e3c 7483 babb f9ce 8eb7 fee7 05bd
000003e0: bc0c 523d c818 5abd 72cc 19be 36b9 bcbd
000003f0: 0088 b738 54a2 393d bdb8 57be 9b58 ec3b
-0.1844503 0.087196335 -0.11856359 0.042260155 0.09926257 -0.33864695 -0.027177973 0.0841385
-0.10230643 -0.024404667 0.09497455 0.14017206 -0.22397839 -0.01277999 0.22729068 0.20437796
-0.136331 -0.13889672 -0.29420042 -0.07355243 -0.24068834 0.034061775 -0.07371416 0.22016989
-0.072719306 0.1114972 0.046499703 0.017082283 -0.08074293 -0.089157574 -0.020029074 0.30132023
-0.03603622 -0.2670984 -0.02370165 0.066277266 -0.0754876 -0.27052826 -0.036461905 -0.16879183
-0.082125396 0.047057986 -0.28185886 0.122132674 -0.039292097 -0.055413898 0.3153758 -0.05847913
-0.0767452 0.038109504 0.079890765 0.036081806 0.041831806 -0.0531051 -0.03363139 -0.076290846
-0.41856566 -0.015729668 -0.08270524 -0.111975014 -0.10010396 -0.1538696 0.24590711 -0.1384707
-0.048034064 0.010432512 -0.069610715 -0.06674108 0.07564281 -0.119089894 -0.04786723 0.031659056
-0.21491334 0.0677837 0.101757206 0.24075004 0.09054618 -0.1637663 0.26146102 0.06992912
0.025472946 -0.2505786 -0.15676317 0.15847312 -0.05408778 -0.04920542 -0.08246202 0.12963288
0.042217627 -0.44528678 -0.32677716 0.06958547 0.03548539 0.06988526 -0.22254452 -0.018770894
0.32697773 -0.08112685 0.001494429 0.13134639 0.39219153 -0.04229036 -0.069431655 0.13628416
-0.01787571 0.07928866 -0.29198828 0.32156593 -0.013463646 -0.15884851 -0.1068324 -0.6033613
-0.18730012 0.05671044 0.04272957 -0.2260722 -0.027118191 -0.30899724 -0.057257023 0.27942792
0.12368051 0.12220382 -0.10741604 0.01747664 0.13173279 -0.014089874 -0.5752827 0.003868081
0.42686197 0.08525461 -0.29741985 -0.009972273 0.02795122 -0.045335464 -0.46186048 -0.011442542
-0.2787417 -0.53403467 -0.044664785 0.020017304 0.03299655 0.0033866484 -0.12331262 0.1412486
-0.15084848 -0.14829908 -0.03924243 0.26103887 -0.08875415 0.043131843 0.036263153 -0.7348992
-0.0056615653 0.09805253 0.13193786 0.14528713 0.06252849 0.018979464 -0.07729264 0.23350452
0.2412149 -0.010624096 0.41231704 -0.14067286 0.0028350279 0.092090115 -0.87391233 -0.070150696
0.16316965 0.08579569 0.24507858 0.10181034 0.07143852 0.17385596 -0.0116123855 0.02243337
-0.44349352 0.53342867 -0.2810819 0.1383803 0.03226509 -0.065270446 -0.088459216 0.27652293
0.08301166 -0.32781237 -0.86954975 0.11764879 -0.3489667 0.25265473 0.042829916 -0.027091756
-0.26975793 0.021233993 -0.24235635 -0.068595 0.1169271 -0.10187402 0.21599367 -0.021325506
-0.013752162 0.029538212 0.13558203 0.34594476 0.053896565 -0.1103587 -0.019358799 -0.006681335
-0.037895218 0.2166659 -0.07732282 0.03628006 0.029826874 0.051858336 0.09555795 0.11512802
-0.12098621 0.066115804 -0.12072611 0.020924533 0.00667711 -0.021476656 0.00047976524 -0.17331922
0.15565825 0.14898592 0.24753737 -0.099628866 0.069555566 0.3787898 0.37480602 -0.10987102
-0.032317877 0.0085898535 -0.06798477 -0.20854901 0.03855683 -0.00593479 0.18436223 -0.030902136
-0.10141671 -0.066620655 0.015415402 -0.14971672 0.012589768 -0.00569194 -1.7024098e-05 -0.032691948
0.051281676 -0.05324629 -0.15019396 -0.09215014 8.751452e-05 0.045320824 -0.21066566 0.007212711

fc2.bias f4 [60]
00000000: 0129 5f3e c9b1 dd3d 5d07 4abe 40d7 2f3f
00000010: 574a 4cbd 5e04 c63d f797 7fbe 84b8 1abd
00000020: d956 e63d ff4d 053f 885a 0e3e 0dd4 933e
00000030: ed75 4fbe ec11 9b3e 6fd0 ddbe c915 7d3e
00000040: b884 25be 378d 26be 6419 bdbe bfc9 75be
00000050: a5eb 13be e271 00bf e496 f53d 4833 213e
00000060: b266 73be 7d37 3a3f 36a7 9a3e 4795 05bf
00000070: 55c4 9dbe 8645 77be 7ceb 02be b203 7cbe
00000080: 25e0 0dbe 2988 873d 43ff 2cbf cb20 86bc
00000090: 7f46 d3bd 3a71 fcbe d707 8cbe 368b 97bd
000000a0: c17a 153f f7a4 c2be 6f8e dabe f869 44bf
000000b0: 3f64 4b3d 49fe 893e df6e 383e b0e5 9fbe
000000c0: f341 e53e 18df ab3e a271 f6bd 6d61 333f
000000d0: 71d2 133f 227a b4bd 50c1 d13e 2c4e a6be
000000e0: 75c4 0fbe 90de f1be 594f b3bc db34 41be
0.21792985 0.108249255 -0.19729371 0.6868782 -0.049875583 0.09668802 -0.24960314 -0.037773624
0.112470336 0.5207214 0.13901722 0.2887272 -0.20259829 0.3028711 -0.43323085 0.24715342
-0.1616391 -0.16264807 -0.36933434 -0.24002741 -0.1444536 -0.5017377 0.11991671 0.15742218
-0.23769644 0.7274092 0.30205697 -0.52180904 -0.30813852 -0.24147615 -0.12785143 -0.24610785
-0.13855036 0.06617767 -0.67577 -0.016373059 -0.103161804 -0.49305135 -0.2734973 -0.07399599
0.5839043 -0.38016483 -0.42686793 -0.76724195 0.04965615 0.26951817 0.18011044 -0.31229925
0.44776878 0.33568645 -0.120333925 0.70070535 0.57742983 -0.088123575 0.40967798 -0.32481515
-0.14039786 -0.47240114 -0.021888422 -0.18867819

out.weight f4 [10, 60]
00000000: 3992 263e 9276 aa3d ae55 56bd 8220 a73b
00000010: 10bf bcbe 5b28 c83c 2e71 b6be 033b 7dbe
00000020: 834b ef3d a3b3 f33d fdd3 473b 5e8c 04be
00000030: f9fc 07bd 8cd9 1ebe a145 a33d 1c4c 97bb
00000040: de13 fdbd 5a26 a43d 8c84 9b3e 9b1c f1bd
00000050: b5e4 c7bc ae95 02be b625 d53d 3bfb 6e3e
00000060: f2af ccbd 1c78 6d3d 90ed d83c d563 473d
00000070: 296b 5a3d dd79 c7bc d266 843d 4dd7 903c
00000080: 5936 95be c589 80be 6e91 73bd c361 83be
00000090: 54d4 99be deae a0be c870 de3d df37 073d
000000a0: 4593 f13d b02c 8cbe 7e76 62be a08d 18bf
000000b0: 4ca7 9bbe e326 cabd f9f1 2ebd c7b8 253e
000000c0: 43a8 1f3e 8aa2 d43d 29ce 38be 2079 203e
000000d0: 1722 21bd ecb4 7ebd 7bf5 49bd 1147 1ebe
000000e0: 6c08 543e 06ea d8be 1aeb ef3d 67d0 82be
000000f0: 7a50 aabe 025a 5d3e 1e0a c9bc 1877 91be
00000100: 604b 23be 32bc de3d deb9 33be f4d2 a3be
00000110: 0ddc c53c 0c0b 97be 2901 6dbe 22ed 373e
00000120: e3d2 5d3d b177 b3bd 2946 b7be 2978 a2be
00000130: aa40 6e3e 6ef2 123e c03b 9bbd 43a3 b53c
00000140: 76fd ae3d 338f a33c 3ec6 6fbe 1ed8 b8bd
00000150: 354d 09be 8e92 bbbd b487 6e3e 6350 2ebd
00000160: d2c6 c1bc 6e3a e23d c950 01bd c048 ddbd
00000170: 57d9 4dbe d074 b3be 433c c3be bb86 afbe
00000180: 7485 28be 9e1d 23bf 07e3 493e 4010 87be
00000190: a0df 2e3e 31a0 81be 53c5 923d 41a0 1abf
000001a0: 2c86 5fbd ac14 de3c a3e5 043e 3fb1 643e
000001b0: 6124 4fbc 2ae9 a0be 71bc 9fbc 3711 b2be
000001c0: 36f6 f9be d1b6 283e 389e e7bc 30a3 bfbe
000001d0: 29eb 5fbd 0cfc d93b fa2b 6b3d 4820 71bc
000001e0: 4634 76bc 065e ddbc 6b02 20be 0bfc 193e
000001f0: b266 e8be 632a 02be ee7a f0bd 8b4b d63d
00000200: 49cd 403e 5d84 263e 92b8 32bd 32ac 623e
00000210: f26c 47bd 75bd 103d faa8 0abf 4490 3e3e
00000220: c6a6 3bbd cdf4 10bd 6e80 e43d 37a1 43be
00000230: 182e 68bc b514 1fbe d360 e73d 0150 30be
00000240: 1526 63be 1104 8c3d a357 2dbd c25a efbc
00000250: d6d8 aabe b65c 8f3c 22b2 72be 0c57 03be
00000260: 0612 8ebe b02f 6ebe f816 793d e9dc e0be
00000270: eab2 82bd b2e6 efbe e248 4cbe 51e4 83be
00000280: 6e2a e73d 7773 9cbe 10d3 0a3c 754f 3ebe
00000290: d484 e1be 43b9 4abe bf22 083d e554 93bd
000002a0: d62c 323e ee46 a93d 9358 41bc 8e7a 003e
000002b0: 914f 643e d5c6 343d 4058 50be a8b0 64be
000002c0: c408 6f3d 62e9 9fbe 42cc f2bd 4217 2abe
000002d0: 432c e53d 918b f3bd 3ea9 1f3d 08d2 dbbd
000002e0: 93a3 0cbe 9615 2b3e ef9f ec3b 48c2 923c
000002f0: 772e a03d ec68 143e f741 6e3d d327 6bbe
00000300: fcc6 b3bd e5a1 3c3e 06d5 18be b573 a03d
00000310: f57b fabc 9535 933d 160e 4ebe cc2e 9a3c
00000320: d02d 0d3d bf6b 593e 89b5 b1bd 31dd 2a3a
00000330: ca9f 2bbe db71 18be e9a1 dabc f209 293e
00000340: a9b2 0cbe 3de0 3fbe 3ee0 9a3d 5749 59bd
00000350: 30b2 94be c992 e4be de19 f7be 2e49 03bf
00000360: 9bd8 36bf 0975 b6bf 69e7 9d3d 59aa 53be
00000370: de34 473e 5e76 39be efb1 b33d 3ffb 183c
00000380: 47c8 b2be 6e50 7dbe 366c 193e ec9a b1bc
00000390: fdad a3bd 3d72 1f3d 88cd c9bc b1a8 66be
000003a0: aff5 d7be f7b3 2b3e b3c0 ee3d d679 b5be
000003b0: 4d44 c8be 8d40 d2be 3911 c6bd 6af7 483d
000003c0: ac26 af3d ab48 28be 45cc fdbd 4ff9 053e
000003d0: ffe0 0dbf 325d 9bbd 8cea 9f3d 3072 1d3e
000003e0: 5efd 1f3e ce2e ecbb 487b 2f3e 2f96 2b3e
000003f0: 0926 c2bd f5dd 683e 91b9 09bf f971 18be
0.16266717 0.08323397 -0.052327804 0.005100311 -0.3686452 0.024433305 -0.35633224 -0.24729542
0.116843246 0.11899497 0.0030491345 -0.12944171 -0.033200238 -0.15512675 0.07972265 -0.0046172272
-0.12357305 0.080151275 0.30374563 -0.11773034 -0.024401048 -0.12752411 0.104075834 0.23338024
-0.099944964 0.057975873 0.026480466 0.04867919 0.053324852 -0.024350101 0.06464924 0.017680788
-0.29143026 -0.2510511 -0.059464864 -0.25660524 -0.30044806 -0.31383413 0.10861355 0.033012267
0.117956676 -0.27377844 -0.22115514 -0.595911 -0.30401075 -0.09870698 -0.04271123 0.16183768
0.1559153 0.10382564 -0.18047394 0.15671206 -0.03933915 -0.06218426 -0.049306374 -0.15456797
0.20706338 -0.42366046 0.11714764 -0.25549623 -0.33264524 0.21616367 -0.024540957 -0.28411174
-0.15946722 0.10875739 -0.17551371 -0.31996882 0.02415278 -0.29500616 -0.23144974 0.17961553
0.054156195 -0.08763064 -0.35795715 -0.317323 0.23266855 0.14350292 -0.07579756 0.022172576
0.085444376 0.019965744 -0.23415467 -0.09025596 -0.13408358 -0.091588125 0.23293954 -0.04255713
-0.023654375 0.11046301 -0.031571183 -0.108048916 -0.2010244 -0.35050058 -0.38131914 -0.3428248
-0.16457158 -0.6371707 0.1971551 -0.26379585 0.17077494 -0.2531753 0.07166543 -0.6040078
-0.054571316 0.027109466 0.12978224 0.22333239 -0.012642951 -0.3142789 -0.019499036 -0.3477876
-0.48820657 0.16475989 -0.028273687 -0.3742919 -0.054667626 0.006652361 0.057414986 -0.014717169
-0.015027111 -0.027022373 -0.15625922 0.15037553 -0.4539085 -0.12711482 -0.11742197 0.104636274
0.1882831 0.1626143 -0.04363305 0.22136 -0.048687883 0.03533693 -0.5416409 0.1860972
-0.045813344 -0.03538971 0.111573085 -0.19104467 -0.014171146 -0.15535243 0.11297765 -0.17218019
-0.22182496 0.06836713 -0.042319905 -0.029218081 -0.33368558 0.017500263 -0.23700765 -0.12826174
-0.27748126 -0.23260379 0.06081292 -0.4391854 -0.063817814 -0.46855694 -0.19949678 -0.2576013
0.1128739 -0.30556843 0.008473173 -0.18584998 -0.44046652 -0.19797234 0.03323626 -0.07193927
0.17399916 0.08265482 -0.011800903 0.12546751 0.22295977 0.044134934 -0.20346165 -0.22333014
0.05835797 -0.31232744 -0.11855365 -0.16610435 0.11190083 -0.118918546 0.03897976 -0.1073342
-0.13734274 0.16707453 0.007221214 0.017914906 0.078213625 0.1449315 0.058168378 -0.2296441
-0.08778188 0.18421133 -0.14925012 0.07834569 -0.030576685 0.07187954 -0.20122561 0.018821143
0.03446752 0.21232508 -0.08677203 0.00065179454 -0.16760173 -0.14887182 -0.026688533 0.165077
-0.13740028 -0.18737884 0.07562302 -0.053048458 -0.29042196 -0.44643238 -0.48261923 -0.5128354
-0.71424264 -1.4254466 0.077101536 -0.20670451 0.19453761 -0.1811156 0.087741725 0.0093372455
-0.34918424 -0.24737713 0.14982685 -0.021680318 -0.0799217 0.038927305 -0.024634138 -0.22525288
-0.4217963 0.1676787 0.11657848 -0.35444516 -0.3911461 -0.41064873 -0.09671254 0.049064077
0.08552298 -0.1643397 -0.12392477 0.13083385 -0.5542144 -0.07586135 0.07808408 0.1537559
0.15623996 -0.007207728 0.17136872 0.16756509 -0.09479911 0.2274092 -0.53798777 -0.14887227

out.bias f4 [10]
00000000: 71d2 24bd 61c0 11bf ccd6 7b3e ad86 7c3e
00000010: 2a1f 76be 2005 12be e12c ba3e f8d1 363d
00000020: 4759 f53e a2e7 a1be
-0.040239755 -0.5693417 0.24593657 0.2466075 -0.24035326 -0.14259768 0.36362365 0.044633836
0.47919676 -0.31622034
